football-prediction-project/machine-learning/checkpoint.pth (torch, 38370 bytes, 18 tensors)

fc1.weight f4 [64, 5]
-0.43302283 -0.024951302 -0.34825972 -0.3679874 0.0039573507 -0.18038452 -1.1007854 -0.13618971
-0.023142332 -0.4057808 -1.2764274 0.15070252 0.67805994 -0.17120849 0.068226315 0.46518454
-0.6635667 -0.49721763 0.11573816 0.012049755 -0.68600816 0.26299128 -0.06261395 0.49479643
0.22914085 -0.19485521 -0.3633071 0.32670432 0.34808218 0.5354162 -0.3449674 0.08890295
-0.17560834 0.62662005 0.2223506 -1.1901087 -0.43211251 0.5833448 0.14411792 -0.3770287
-0.32840535 -0.24495943 -0.30534813 -0.43904126 0.43653974 0.5307712 1.8048526 -0.0045040473
-0.15884899 0.29883265 0.12351619 0.21236575 0.6781323 0.0599478 -0.29093185 0.41970056
0.19233689 0.346525 -0.1159525 -0.040241655 -0.28139046 0.3360771 0.48801997 0.29499105
-0.46538222 -0.257828 -0.08982249 0.113685526 0.43758422 0.4366015 0.26048595 -0.083793715
0.6200145 -0.10772661 -0.28626788 -0.20546727 -0.08880711 0.67426693 -0.34577844 -0.017719833
0.22428696 0.37930718 0.36079797 0.10271726 -0.3311282 -0.33040565 -0.28109354 -0.3376814
-0.26029623 -0.36743927 0.5579136 0.04398987 -0.07423395 -0.17358015 0.54464614 0.2102102
-0.3666384 0.6672337 -0.15065648 -0.030572722 0.7167077 0.7397583 -0.1121444 -0.70823646
0.42416382 0.22707044 -0.5730345 -0.56803626 0.16899425 -0.09176168 0.3143388 -0.3563121
0.07410066 0.37266862 0.3812187 -0.6505557 -1.2041931 -0.37097803 -0.13639246 0.19579755
0.73950934 -0.33141974 0.2518205 0.13150507 0.4354022 -0.44736606 1.001387 0.603036
0.308591 0.21148679 -1.7063296 -0.7547068 -0.2899859 0.0124655515 0.09624845 0.35141578
-0.7947899 0.5652756 0.47659734 -0.5095133 -0.35326633 -0.05127539 0.016855445 0.44672683
-0.015920797 0.57869697 -0.3014636 -0.041061383 0.036936495 0.5141008 -0.009646104 -0.13060783
0.20937593 0.34827548 -0.48777092 0.5308595 -0.63938564 0.6357017 0.17244034 -0.47415468
0.6047727 -0.63793844 0.58749354 0.011067634 -0.33701977 -0.4392654 0.082179815 0.19085301
0.45915738 0.33211076 0.09658627 -0.17722854 -0.28456792 0.6358124 -0.32482615 0.25154787
-0.15928248 -0.5373052 0.4573727 0.47713637 -0.49647197 -0.25240907 0.24996589 0.21991946
0.44750893 -0.4325975 -0.24892075 -0.3791494 0.7088272 -0.19909725 -0.46124718 0.41818273
0.025330095 0.6447595 -0.2755839 -0.2211465 -1.1419157 -0.07085667 -0.07573367 -0.34764048
-0.19847165 -0.18784295 -0.40143114 0.511716 0.29409912 1.2231354 -0.77519804 0.36708692
-0.025771825 -0.3526807 -0.4679863 -0.60243344 0.57552147 0.45187852 -0.14411382 0.9737152
-0.1153343 -0.12486918 0.07007763 0.3478515 0.12849711 0.8277927 -0.20701644 -0.3662273
0.6698819 -0.30518588 -0.30396056 0.3191101 0.71061635 0.022171425 -0.16836411 -0.19340211
-0.43266436 0.5294025 0.11896565 0.27336258 0.4387412 0.6619566 -0.35192055 -0.10511947
0.008284806 -0.5727198 0.31983218 0.59308946 0.59314924 -0.49442473 0.16221222 -0.33161208
0.3303656 0.4580814 -0.54012334 0.41195711 0.65163094 -0.11439334 0.2661387 0.18993327
00000000: 2bb5 ddbe ac66 ccbc 194f b2be d868 bcbe
00000010: aaac 813b b8b6 38be 89e6 8cbf 5175 0bbe
00000020: fd94 bdbc 80c2 cfbe f961 a3bf c351 1a3e
00000030: 5695 2d3f 4751 2fbe 3dba 8b3d ab2c ee3e
00000040: 82df 29bf 4f93 febe 2108 ed3d 566c 453c
00000050: 3b9e 2fbf cba6 863e be3b 80bd f555 fd3e
00000060: e6a3 6a3e 2088 47be 6303 babe ca45 a73e
00000070: d437 b23e 0911 093f 919f b0be c012 b63d
00000080: acd2 33be 2c6a 203f e0af 633e 7b55 98bf
00000090: da3d ddbe 1656 153f a693 133e e809 c1be
000000a0: bf24 a8be a5d6 7abe 9756 9cbe 04ca e0be
000000b0: 2382 df3e 9fe0 073f 6905 e73f b096 93bb
000000c0: 4fa9 22be 9800 993e 0ef6 fc3d 6876 593e
000000d0: 149a 2d3f d38b 753d 05f5 94be fee2 d63e
000000e0: f6f3 443e ba6b b13e 8178 edbd 6fd4 24bd
000000f0: 6912 90be 4c12 ac3e c1dd f93e 1109 973e
00000100: 9446 eebe 0802 84be dbf4 b7bd f5d3 e83d
00000110: 0a0b e03e 3b8a df3e 6a5e 853e 0a9c abbd
00000120: 45b9 1e3f c59f dcbd b491 92be 0366 52be
00000130: 81e0 b5bd c29c 2c3f df09 b1be 2f29 91bc
00000140: 7bab 653e 8d34 c23e 83ba b83e 6d5d d23d
00000150: a389 a9be ee2a a9be 7eeb 8fbe 94e4 acbe
00000160: 8c45 85be 0021 bcbe 6dd3 0e3f b92e 343d
00000170: f807 98bd ffbe 31be ee6d 0b3f 5841 573e
00000180: 07b8 bbbe d4cf 2a3f b145 1abe a573 fabc
00000190: 287a 373f cd60 3d3f f7ab e5bd fc4e 35bf
000001a0: 002c d93e 2785 683e 64b2 12bf d36a 11bf
000001b0: d40c 2d3e 8ced bbbd 04f1 a03e 8a6e b6be
000001c0: 16c2 973d 6cce be3e 192f c33e d18a 26bf
000001d0: 0023 9abf d5f0 bdbe 77aa 0bbe 277f 483e
000001e0: 7c50 3d3f d9af a9be 9eee 803e 44a9 063e
000001f0: 0aed de3e 2a0d e5be 732d 803f 9160 1a3f
00000200: a4ff 9d3e fe8f 583e 0269 dabf 7734 41bf
00000210: 0879 94be 503c 4c3c e81d c53d c5ec b33e
00000220: 5a77 4bbf e7b5 103f 9104 f43e 776f 02bf
00000230: 53df b4be 2506 52bd 6e14 8a3c 61b9 e43e
00000240: 556c 82bc 7c25 143f 7059 9abe fb2f 28bd
00000250: b94a 173d 1c9c 033f b10a 1ebc 0fbe 05be
00000260: a566 563e 2a51 b23e 1cbd f9be 68e6 073f
00000270: c7ae 23bf 59bd 223f 3394 303e 67c4 f2be
00000280: 62d2 1a3f ef4f 23bf fa65 163f 0655 353c
00000290: db8d acbe 65e7 e0be e44d a83d f96e 433e
000002a0: ad16 eb3e 6c0a aa3e 06cf c53d 667b 35be
000002b0: e3b2 91be 9ac4 223f 9d4f a6be e2ca 803e
000002c0: f21a 23be d58c 09bf c12c ea3e 384b f43e
000002d0: 9331 febe c33b 81be 0ff7 7f3e 9132 613e
000002e0: e41f e53e 6b7d ddbe 15e5 7ebe df1f c2be
000002f0: b375 353f 26e0 4bbe 9728 ecbe 0c1c d63e
00000300: 0f81 cf3c f50e 253f 5519 8dbe 3a74 62be
00000310: 4b2a 92bf 4d1d 91bd 411a 9bbd effd b1be
00000320: 273c 4bbe e759 40be 6288 cdbe d2ff 023f
00000330: 2994 963e b38f 9c3f 6173 46bf d1f2 bb3e
00000340: 6f1f d3bc 9192 b4be e69b efbe 1439 1abf
00000350: 6055 133f 9f5c e73e 9392 13be 6645 793f
00000360: 6434 ecbd 6abb ffbd dc84 8f3d 9819 b23e
00000370: bf94 033e 39ea 533f 1efc 53be 2582 bbbe
00000380: 617d 2b3f 5341 9cbe b8a0 9bbe 6662 a33e
00000390: f4ea 353f d9a0 b53c a467 2cbe 340b 46be
000003a0: 2f86 ddbe ec86 073f 43a4 f33d 2ef6 8b3e
000003b0: b0a2 e03e fd75 293f ee2e b4be e048 d7bd
000003c0: ffbc 073c c49d 12bf 0bc1 a33e b6d4 173f
000003d0: a1d8 173f 3d25 fdbe f61a 263e 0fc9 a9be
000003e0: ae25 a93e a589 ea3e 8645 0abf 0bec d23e
000003f0: 49d1 263f 0e47 eabd 5543 883e de7d 423e

fc1.bias f4 [64]
-0.3953957 -0.15307434 -0.17424412 -0.36174223 0.06634152 -0.20123026 0.5440588 0.03139773
-0.17308654 -0.14957309 -0.014915563 -0.30929226 -0.2796683 0.56452554 -0.031031452 -0.1476148
-0.31603938 0.34531578 0.15809332 -0.36374503 -0.07318954 0.24960187 0.036330134 -0.32510674
0.61180866 0.46132526 -0.123288415 0.047428813 0.22367455 0.46005318 0.044114802 -0.46920788
-0.5192419 -0.03917825 0.35855708 -0.07201661 0.58608955 0.41555476 0.07002897 -0.32928908
-0.16300176 0.0356992 -0.2732215 0.09417443 0.51897323 -0.19497913 0.18145566 0.13559829
0.17429632 0.07636143 0.33495453 -0.23756303 0.21277556 0.20488408 -0.14108197 0.105540246
0.4818015 -0.2966158 0.40326512 0.44264033 -0.3786525 -0.5404948 -0.53195226 0.17759256
00000000: 4e71 cabe 85bf 1cbe 0d6d 32be 4736 b9be
00000010: 10de 873d 4e0f 4ebe 7047 0b3f e89a 003d
00000020: 993d 31be b029 19be 6860 74bc 8e5b 9ebe
00000030: af30 8fbe bf84 103f ac35 febc 5628 17be
00000040: eacf a1be 3bcd b03e 37e3 213e ca3c babe
00000050: 66e4 95bd a297 7f3e e8ce 143d 6474 a6be
00000060: 7e9f 1c3f d332 ec3e a37e fcbd b744 423d
00000070: f10a 653e 178c eb3e b9b1 343d 043c f0be
00000080: 0aed 04bf 5f79 20bd cb94 b73e 727d 93bd
00000090: f709 163f 98c3 d43e 596b 8f3d 9498 a8be
000000a0: efe9 26be 5339 123d b0e3 8bbe 86de c03d
000000b0: 6edb 043f 9ca8 47be 83cf 393e 47da 0a3e
000000c0: bc7a 323e 6263 9c3d 297f ab3e b943 73be
000000d0: d6e1 593e 22cd 513e cb77 10be 7c25 d83d
000000e0: b0ae f63e 07de 97be c478 ce3e c1a1 e23e
000000f0: bede c1be de5d 0abf 062e 08bf d3da 353e

fc2.weight f4 [32, 64]
0.003497377 -3.039094 -1.839984 4.136604 -0.003649097 0.15066636 0.22847283 -1.2371706
0.1344594 0.010451739 -0.043359973 -0.38255158 -0.15077454 0.1482705 -0.13935459 -0.49057722
-0.14963812 0.3825493 0.1812922 -0.24419503 5.249072 3.4654126 0.1930615 5.9168525
0.102035895 -0.10556716 2.1222236 0.15039049 0.15573132 0.16092986 0.16523331 -0.09937346
-0.29812464 0.07786079 0.7279272 0.6693847 0.086817436 0.64325273 0.10426857 -2.8918483
0.5984692 -0.39084014 0.12923038 0.3565317 0.7336651 0.039855 0.68627465 -0.6292489
0.06402557 0.24511707 -0.10735364 -1.1483591 0.60185355 0.0067773312 0.42765787 0.88936514
0.2778537 -0.23814256 0.21006691 -0.18466812 -2.3535304 0.7502264 -0.33633313 0.77509856
0.0008889735 -0.029770913 0.101415694 0.004266159 0.09256061 -0.07683714 0.04651975 0.032672707
-0.13305703 -0.03147184 -0.12123427 0.0133870505 0.061501637 0.060256395 -0.08255255 0.037362788
0.032465264 0.08637912 -0.037431628 -0.11258779 0.041872643 0.05303347 0.010221109 0.041161623
-0.08435572 -0.120308265 -0.120910645 -0.011873742 0.079382986 -0.089501716 0.11188872 0.030164327
-0.12051623 -0.12822229 0.04605158 0.090130344 0.056477226 0.029007073 0.046176434 0.05819846
0.07385295 0.070281245 -0.08739127 0.052601587 -0.08766437 -0.0045865495 -0.113697216 -0.073360965
0.049322594 -0.06886187 0.06589655 -0.009931856 0.08353309 -0.100868575 -0.049711894 0.07970217
0.05422081 -0.12589191 0.055717517 -0.02201155 -0.0053320723 0.027671823 0.060292594 -0.033624355
-0.074743375 1.4730453 0.62676024 -3.3532913 0.060256638 0.031905238 0.01648715 0.8296316
-0.3718742 1.5830258 0.20297924 0.021214115 0.2221539 -0.11419503 0.20970699 0.3790225
0.33068934 -0.40809828 -0.07131433 0.10698065 -4.7795577 -3.311468 -0.08182457 -5.8521705
-0.13972491 0.15822114 -1.6271275 0.07217687 0.014141421 -0.18385518 0.13816217 0.5864496
0.65988934 0.052111316 0.084135756 -0.2715769 -0.116553254 0.07192883 0.2389816 1.9088786
-0.18250564 0.76546913 0.05800384 -0.12618452 -0.122697994 0.036297757 -0.17109026 0.06661872
0.060248934 -0.09933328 0.020007217 -2.9586315 -0.23566405 -0.0029654412 -0.18901893 0.08533677
0.016588751 0.49843448 -0.14219984 0.0242227 0.9657525 -0.833656 0.3121986 -0.2621076
0.009404555 -0.088604 0.28266093 0.06907298 -0.015005497 -0.04514396 -0.09194933 -0.34941453
0.059660453 0.47745895 -0.040796004 0.18640296 0.05462091 0.014678681 -0.10135165 0.2937883
0.035266347 -0.14407718 0.19082399 0.019314846 -0.48805875 0.028772552 -0.2059437 0.10260044
-0.13051353 -0.020808034 -0.10869631 -0.41307336 -0.10248885 0.103153735 -0.31198415 -0.117612205
0.0075188293 0.11023466 -0.73040324 -0.024994306 -0.067905195 -0.4350838 -0.13540204 0.092995405
0.102427684 -0.12784232 -0.22583242 0.051509116 0.5396432 -0.07266422 -0.028349765 0.1741168
-0.12282234 0.27257627 0.14610702 -0.018675664 0.19062847 -0.16227582 -0.17612611 -1.266899
0.05439193 -0.2736054 0.099669576 0.3845036 -0.0738923 0.085589394 0.13935146 0.036312032
00000000: 4034 653b 8480 42c0 9984 ebbf 0f5f 8440
00000010: b025 6fbb 4848 1a3e c8f4 693e 9b5b 9ebf
00000020: baaf 093e c53d 2b3c 3a9a 31bd cddd c3be
00000030: a464 1abe 39d4 173e f8b2 0ebe f02c fbbe
00000040: bc3a 19be 80dd c33e aaa4 393e 430e 7abe
00000050: 66f8 a740 52c9 5d40 eab1 453e db56 bd40
00000060: 32f8 d03d 9833 d8bd 83d2 0740 f7ff 193e
00000070: 0878 1f3e ccca 243e ec32 293e 5084 cbbd
00000080: cba3 98be 7a75 9f3d 7059 3a3f cc5c 2b3f
00000090: 57cd b13d 36ac 243f c38a d53d 0b14 39c0
000000a0: 4735 193f 331c c8be f854 043e 538b b63e
000000b0: 7ad1 3b3f ff3e 233d b2af 2f3f 7516 21bf
000000c0: d71f 833d f8ff 7a3e 3adc dbbd 6efd 92bf
000000d0: 1313 1a3f 6014 de3b f9f5 da3e 6fad 633f
000000e0: d742 8e3e a5db 73be c81b 573e a419 3dbe
000000f0: 3ea0 16c0 d60e 403f db33 acbe dc6c 463f
00000100: 000a 693a 21e2 f3bc 08b3 cf3d 23cb 8b3b
00000110: 6b90 bd3d ca5c 9dbd 7e8b 3e3d d1d3 053d
00000120: 1a40 08be 9ee8 00bd ac49 f8bd 5c55 5b3c
00000130: 24e9 7b3d 69cf 763d 5011 a9bd b909 193d
00000140: 4cfa 043d 89e7 b03d e851 19bd 6d94 e6bd
00000150: a682 2b3d a039 593d 7076 273c 1799 283d
00000160: b1c2 acbd 2e64 f6bd 00a0 f7bd 158a 42bc
00000170: 8c93 a23d ad4c b7bd ea25 e53d 2e1b f73c
00000180: 37d1 f6bd b44c 03be 95a0 3c3d 4296 b83d
00000190: aa54 673d 3ea0 ed3c 8023 3d3d 8261 6e3d
000001a0: 3740 973d 9def 8f3d 32fa b2bd c374 573d
000001b0: 6189 b3bd c44a 96bb 16da e8bd 463e 96bd
000001c0: 7d06 4a3d 7407 8dbd c5f4 863d 39b9 22bc
000001d0: 6613 ab3d 2f94 cebd b39e 4bbd e43a a33d
000001e0: a416 5e3d cfe9 00be 0d38 643d 9151 b4bc
000001f0: aab8 aebb 05b0 e23c 5ef5 763d b1b9 09bd
00000200: 0e13 99bd c08c bc3f 5c73 203f 539c 56c0
00000210: aacf 763d 11af 023d 0f10 873c bd62 543f
00000220: 4c66 bebe 97a0 ca3f cad9 4f3e 39c9 ad3c
00000230: 507c 633e 15df e9bd 6ebd 563e 3d0f c23e
00000240: 1d50 a93e 42f2 d0be 3f0d 92bd ac18 db3d
00000250: 23f2 98c0 17ef 53c0 a493 a7bd fb44 bbc0
00000260: 0c14 0fbe b904 223e b745 d0bf 78d1 933d
00000270: 6bb1 673c 8844 3cbe 627a 0d3e 9021 163f
00000280: 82ee 283f ad72 553d 5e4f ac3d 210c 8bbe
00000290: 79b3 eebd 6c4f 933d 98b7 743e 2256 f43f
000002a0: c2e2 3abe c9f5 433f 6f95 6d3d 8436 01be
000002b0: 1649 fbbd f5ac 143d 4932 2fbe 656f 883d
000002c0: 96c7 763d 3f6f cbbd 2de6 a33c 385a 3dc0
000002d0: eb51 71be d957 42bb 2e8e 41be 0bc5 ae3d
000002e0: 22e5 873c ce32 ff3e d69c 11be af6e c63c
000002f0: 8e3b 773f 7b6a 55bf 7fd8 9f3e f832 86be
00000300: 9015 1a3c 0476 b5bd efb8 903e 2276 8d3d
00000310: 9ed9 75bc dfe8 38bd ee4f bcbd 76e6 b2be
00000320: 855e 743d 8075 f43e b619 27bd 6be0 3e3e
00000330: 2dba 5f3d da7e 703c 7491 cfbd 6c6b 963e
00000340: 7273 103d f888 13be 5d67 433e 2b3a 9e3c
00000350: d6e2 f9be 6ab4 eb3c e8e2 52be 2e20 d23d
00000360: 57a5 05be 9c75 aabc 2c9c debd 5a7e d3be
00000370: ade5 d1bd 4442 d33d 63bc 9fbe abde f0bd
00000380: 8360 f63b b6c2 e13d b5fb 3abf dcc0 ccbc
00000390: e111 8bbd 4ec3 debe d5a6 0abe 6074 be3d
000003a0: 9bc5 d13d 19e9 02be 9d40 67be 39fb 523d
000003b0: 0f26 0a3f fbd0 94bd c43d e8bc ad4b 323e
000003c0: 478a fbbd 1e8f 8b3e 149d 153e b5fd 98bc
000003d0: 1c34 433e a22b 26be 675a 34be bf29 a2bf
000003e0: 13ca 5e3d 0216 8cbe 901f cc3d a8dd c43e
000003f0: d954 97bd 7e49 af3d 26b2 0e3e edbb 143d

fc2.bias f4 [32]
0.07430937 -0.0912057 -0.13912807 -0.025921052 -0.04842888 0.25074932 0.09145029 -0.041707017
-0.30374172 -0.029240353 -0.19946754 0.28116158 -0.038377754 0.07675535 0.043585833 -0.052654672
0.10998464 0.36574897 -0.09886213 -0.056594644 0.012257892 0.05834748 -0.05504991 -0.12140347
-0.097631074 0.035132833 -0.08832351 -0.028542537 -0.1284371 -0.123692445 0.10250505 0.11904918
00000000: 832f 983d 0eca babd 9777 0ebe 6358 d4bc
00000010: 5c5d 46bd 3762 803e 4a4a bb3d fad4 2abd
00000020: 0984 9bbe 7789 efbc 3841 4cbe 69f4 8f3e
00000030: fe31 1dbd e931 9d3d 0f87 323d 6dac 57bd
00000040: a03f e13d 7343 bb3e 3a78 cabd c9cf 67bd
00000050: 53d5 483c c4fd 6e3d 047c 61bd 62a2 f8bd
00000060: cdf2 c7bd 72e7 0f3d f5e2 b4bd 0ad2 e9bc
00000070: 0485 03be 7752 fdbd 2bee d13d 0ed0 f33d

fc3.weight f4 [3, 32]
-2.649622 0.096743144 0.061114866 -4.4363027 0.077947445 -2.5945954 0.04117222 0.24311104
0.02917761 -3.4145494 -1.2995034 0.14900184 -0.12609942 -3.142962 0.463695 -0.013063227
-0.09258552 3.5128517 0.119052134 0.43875375 -3.3810267 -0.042257294 -0.093410395 0.07808695
0.14747424 0.61317205 -0.4197106 -4.3779984 0.48497787 -0.072755255 -2.6561222 -1.82578
0.9787257 0.011238855 -1.2209324 -3.71458 -0.110949986 0.7970407 -0.14567457 -1.1972387
-1.4216374 0.6420514 -3.8152616 0.6597226 0.008869123 0.87655574 -1.3076191 -0.056344796
-0.09759956 0.9012678 -0.064990774 -0.95913 0.51249415 0.41946504 -0.084118515 0.81604713
-0.14723949 -1.0284054 4.996952 0.56927687 -0.97757584 0.15036297 0.851055 0.8481931
-0.20974334 -0.025428033 0.5335402 3.9596338 0.028127143 -0.23354815 -0.0065602623 0.16997705
0.5217646 -0.10216869 2.4282248 -0.57749957 -0.02320947 -0.008476951 -0.02029084 0.0007905308
-0.16782479 -1.3393124 -0.09535568 0.273259 0.21062596 -0.47124168 -0.120271236 -1.0675007
0.13632487 0.06490574 -4.836345 -0.08157083 0.2599266 -0.015049951 -0.25716287 -0.3108999
00000000: 6893 29c0 4521 c63d 9553 7a3d 31f6 8dc0
00000010: e9a2 9f3d da0d 26c0 34a4 283d 1af2 783e
00000020: e205 ef3c fa87 5ac0 2156 a6bf f093 183e
00000030: 3520 01be 4a26 49c0 6e69 ed3e 2507 56bc
00000040: 7a9d bdbd 90d2 6040 9bd1 f33d 55a4 e03e
00000050: be62 58c0 fc15 2dbd f34d bfbd 0dec 9f3d
00000060: 7d03 173e d8f8 1c3f 4fe4 d6be 9018 8cc0
00000070: 054f f83e b500 95bd e8fd 29c0 29b3 e9bf
00000080: c48d 7a3f 2d23 383c 8347 9cbf aebb 6dc0
00000090: bf39 e3bd dc0a 4c3f b72b 15be 1e3f 99bf
000000a0: 37f8 b5bf 7b5d 243f 3f2d 74c0 95e3 283f
000000b0: cc4f 113c f565 603f 1060 a7bf cdc9 66bd
000000c0: 47e2 c7bd 7db9 663f e219 85bd 8b89 75bf
000000d0: d132 033f 1fc4 d63e 5446 acbd 77e8 503f
000000e0: f3c5 16be caa2 83bf 08e7 9f40 21bc 113f
000000f0: 6942 7abf c0f8 193e bede 593f 2f23 593f
00000100: f5c6 56be 734e d0bc 1796 083f a46a 7d40
00000110: e56a e63c 3f27 6fbe 78f7 d6bb 770e 2e3e
00000120: 5d92 053f d13d d1bd 0968 1b40 03d7 13bf
00000130: c921 bebc e9e2 0abc fa38 a6bc a03b 4f3a
00000140: 43da 2bbe 976e abbf d749 c3bd 9be8 8b3e
00000150: 55ae 573e 9746 f1be c450 f6bd dda3 88bf
00000160: bf98 0b3e 4ded 843d 57c3 9ac0 9b0e a7bd
00000170: 1915 853e 1294 76bc daaa 83be 462e 9fbe

fc3.bias f4 [3]
0.05126138 0.048907068 -0.10081351
00000000: 74f7 513d c752 483d 5077 cebd

exp_avg f4 [64, 5]
0.0 0.0 0.0 0.0 0.0 -1.5476085e-09 7.397385e-09 -1.1305063e-08
-1.1558354e-08 -6.042222e-09 -4.36099e-05 0.0038924515 0.045068976 0.05133919 0.037363723 -4.2447783e-09
-5.608459e-09 4.837727e-09 -1.013493e-09 -9.886514e-09 -0.0008198902 0.0007256659 -0.0060896715 -0.0072501116
-0.005504483 -0.00015784265 -0.00027972524 -0.0023121033 -0.0021307229 -0.0012532944 -0.00094097486 -0.00021328118
-0.008445309 -0.008823487 -0.006004851 0.00380953 -0.0019712774 0.055226967 0.060226556 0.04403782
4e-45 -6e-45 6e-45 6e-45 6e-45 0.0046059676 0.002991451 0.034670006
0.035891537 0.025662826 0.00045604014 0.0002839674 0.008089641 0.008936057 0.0066742254 0.0021674098
0.00025940905 0.017433366 0.018936386 0.013546782 -0.00013070353 0.0005312772 0.006889412 0.0078636985
0.0063576875 -0.0005307418 -1.243381e-05 -0.0051350645 -0.005522853 -0.003876202 0.0013806897 -0.00014859371
0.018619334 0.021253867 0.016187392 0.0034519723 0.00055070076 0.03428788 0.03710391 0.026525432
0.0006230448 0.0010367931 0.0114489095 0.012346313 0.009195335 -6e-45 6e-45 -6e-45
-6e-45 -6e-45 0.0016125175 -0.00059903716 0.0016494686 0.001395193 0.00016911408 0.0017740303
-0.00047014118 0.020379426 0.023375865 0.01779519 0.00023738464 5.2092462e-05 0.00035928946 0.0004921303
0.00037632103 -4.2542467e-09 -2.5286302e-09 5.867279e-10 -4.6526716e-09 -1.0801137e-08 -0.0003190546 -0.0007119184
-0.0055026966 -0.005393093 -0.003584002 -3.4175441e-06 3.7161208e-05 -7.98918e-05 -8.273679e-05 -7.7259254e-05
-2.0103846e-05 -0.0013590074 -0.005366986 -0.0046192836 -0.0026310564 0.00022028563 0.000466366 0.002716653
0.0025800613 0.0016432677 0.0024277654 0.0015381022 -0.014929869 -0.016488377 -0.012930954 -0.00030022548
-0.00090541854 0.001585448 0.0033740047 0.0037744015 -0.0007816818 -5.128824e-05 -0.004964593 -0.0050315126
-0.0031920555 -3.202135e-05 -0.0012799074 -0.0057276315 -0.0050965357 -0.0030045328 -0.0007582909 -7.7270284e-05
0.0008413317 0.0018139771 0.0022547706 0.0011492594 0.0006645148 0.02832697 0.031734075 0.024255482
0.0019156736 0.0005765535 0.035661552 0.039982267 0.030428233 -0.00016078055 0.00015396172 -0.0010777705
-0.0012191929 -0.0008362005 -0.005016656 -0.0019982688 -0.033641953 -0.032535292 -0.019680737 -0.002572523
-9.342348e-05 -0.024582142 -0.02691512 -0.019480443 -1.3548625e-05 -0.00032138836 -0.0023615193 -0.0023106826
-0.001544874 -0.0047579124 0.00030451777 -0.03328091 -0.035262637 -0.023918167 -0.0015004436 0.0013229526
-0.0036999073 -0.0044360193 -0.0029268786 -1.516383e-09 7.230796e-09 -1.1046404e-08 -1.13111955e-08 -5.928986e-09
-0.004262797 0.00073663174 -0.033060994 -0.03590379 -0.025092982 0.0035494147 -0.00097033696 0.03507559
0.04204394 0.033766605 -0.00047148138 -0.00025698173 8.6885106e-05 0.00093807897 0.001491616 -0.00047661024
-0.0032103818 -0.012519607 -0.010699442 -0.0058238837 -0.0025000048 -0.0005447047 -0.020525005 -0.024286864
-0.020419894 -0.0005647584 -0.00038618094 -0.0034489261 -0.0028968998 -0.0012719473 -0.005305625 0.0010414047
-0.03917979 -0.04253504 -0.029605422 0.0029570174 0.0007642373 0.026246984 0.027630081 0.019041609
-0.00012832972 -0.0007202078 -0.0032513936 -0.0027692409 -0.001484329 -0.0015544738 0.00046901862 -0.013820249
-0.015345895 -0.010956172 0.00063846447 0.000353071 0.0047120037 0.004743509 0.0031342919 0.000604796
00000000: 0000 0000 0000 0000 0000 0000 0000 0000
00000010: 0000 0000 a2b3 d4b0 162c fe31 3138 42b2
00000020: 2e92 46b2 f29b cfb1 c6e9 36b8 8018 7f3b
00000030: 3f9a 383d 0b49 523d b40a 193d 77d9 91b1
00000040: 87b4 c0b1 1939 a631 1d4b 8bb0 59d9 29b2
00000050: e6ed 56ba 9d3a 3e3a de8b c7bb 5892 edbb
00000060: f35e b4bb 9082 25b9 16a8 92b9 a886 17bb
00000070: 99a3 0bbb 9545 a4ba c1ab 76ba 3ba4 5fb9
00000080: 315e 0abc 6390 10bc 57c4 c4bb 4fa9 793b
00000090: 8c30 01bb ac35 623d 1fb0 763d 0061 343d
000000a0: 0300 0000 0400 0080 0400 0000 0400 0000
000000b0: 0400 0000 a8ed 963b 380c 443b 2302 0e3d
000000c0: 0103 133d d93a d23c ac18 ef39 76e1 9439
000000d0: 6a8a 043c 8a68 123c 76b3 da3b 1a0b 0e3b
000000e0: 4b01 8839 6bd0 8e3c 7b20 9b3c 52f3 5d3c
000000f0: 760d 09b9 6945 0b3a 94c0 e13b bed6 003c
00000100: 2654 d03b 7b21 0bba cf9a 50b7 0b44 a8bb
00000110: 0df9 b4bb e107 7ebb 42f8 b43a d2cf 1bb9
00000120: 9387 983c 971c ae3c 6c9b 843c 7c3a 623b
00000130: e75c 103a 7371 0c3d 45fa 173d dd4b d93c
00000140: d453 233a 01e5 873a 3594 3b3c 3148 4a3c
00000150: 08a8 163c 0400 0080 0400 0000 0400 0080
00000160: 0400 0080 0400 0080 1c5b d33a b408 1dba
00000170: fb32 d83a e9de b63a 3754 3139 9486 e83a
00000180: 487d f6b9 c1f2 a63c be7e bf3c 38c7 913c
00000190: 74ea 7839 db7d 5a38 045f bc39 4e02 013a
000001a0: f44c c539 c02c 92b1 22c4 2db1 4e47 2130
000001b0: 55dd 9fb1 e78f 39b2 c946 a7b9 09a0 3aba
000001c0: f74f b4bb 8bb8 b0bb 93e1 6abb f658 65b6
000001d0: 8bdd 1b38 958b a7b8 fa82 adb8 3f06 a2b8
000001e0: aea4 a8b7 b920 b2ba 8bdd afbb 5c5d 97bb
000001f0: cd6d 2cbb 79fc 6639 9682 f439 e009 323b
00000200: 3f16 293b ea62 d73a 251b 1f3b 259a c93a
00000210: 699c 74bc a212 87bc 5adc 53bc 9567 9db9
00000220: 9c59 6dba cfce cf3a 681e 5d3b f35b 773b
00000230: c7e9 4cba 541e 57b8 06ae a2bb 63df a4bb
00000240: ce31 51bb aa4e 06b8 91c2 a7ba dbae bbbb
00000250: d700 a7bb b2e7 44bb 0ac8 46ba 2b0c a2b8
00000260: d18c 5c3a f9c2 ed3a c6c4 133b bfa2 963a
00000270: d532 2e3a f60d e83c 97fb 013d 6fb3 c63c
00000280: 5717 fb3a da23 173a d911 123d 72c4 233d
00000290: a144 f93c 3397 28b9 c970 2139 fa43 8dba
000002a0: 53cd 9fba 7734 5bba c362 a4bb 63f5 02bb
000002b0: 25cc 09bd ba43 05bd 7f39 a1bc c697 28bb
000002c0: 59ec c3b8 7d60 c9bc 197d dcbc 7395 9fbc
000002d0: e74e 63b7 0480 a8b9 b8c3 1abb d26e 17bb
000002e0: 5f7d caba 43e8 9bbb afa7 9f39 9051 08bd
000002f0: 8e6f 10bd 08f0 c3bc 88aa c4ba ec66 ad3a
00000300: 257a 72bb 075c 91bb e0d0 3fbb fc68 d0b0
00000310: c172 f831 99c6 3db2 2a53 42b2 eab7 cbb1
00000320: efae 8bbb 851a 413a f76a 07bd da0f 13bd
00000330: cc8f cdbc 4c9d 683b 365e 7eba 6cab 0f3d
00000340: 4436 2c3d da4e 0a3d 2931 f7b9 81bb 86b9
00000350: 1636 b638 6ae9 753a 5482 c33a 8be1 f9b9
00000360: 4565 52bb 0a1f 4dbc b64c 2fbc 47d6 bebb
00000370: 1fd7 23bb 83ca 0eba 0e24 a8bc 3ff5 c6bc
00000380: 9f47 a7bc 4b0c 14ba 5478 cab9 6107 62bb
00000390: ead9 3dbb 78b7 a6ba cfda adbb be7f 883a
000003a0: fd7a 20bd 3939 2ebd 1287 f2bc 85ca 413b
000003b0: 1957 483a ea03 d73c 7b58 e23c 26fd 9b3c
000003c0: 3f90 06b9 54cc 3cba 5515 55bb 277c 35bb
000003d0: d18d c2ba 7cbf cbba 9de6 f539 536e 62bc
000003e0: 596d 7bbc 8481 33bc a05e 273a 631c b939
000003f0: 2767 9a3b 706f 9b3b b168 4d3b 2c8b 1e3a

exp_avg_sq f4 [64, 5]
0.0 0.0 0.0 0.0 0.0 2.5747247e-17 6.9166646e-16 6.288387e-16
7.5063774e-16 2.7510868e-16 0.0027099825 0.0016652903 0.062835954 0.06374834 0.02597858 3.709898e-11
3.541856e-11 1.9611758e-10 2.735506e-10 2.3468305e-10 9.125277e-05 4.038789e-05 0.001881943 0.001787522
0.0005964152 1.17732325e-05 4.800907e-06 0.00019739933 0.00018302261 5.1547184e-05 7.819885e-05 3.6033798e-05
0.0014951767 0.0014537275 0.00051545363 0.0016743463 0.00079751736 0.040994853 0.044374593 0.02086382
7e-43 7e-43 7e-43 7e-43 7e-43 0.0008403705 0.0007181954 0.021283021
0.022338813 0.010502402 2.4578407e-05 2.126497e-05 0.00059326674 0.0007146812 0.0003957816 0.00027698974
0.00015130911 0.0056245457 0.005694984 0.0022971062 2.0258749e-05 2.8418339e-05 0.0005656168 0.0007443451
0.00047165444 3.1391264e-05 1.3580453e-05 0.0006064458 0.0005935669 0.00021397902 0.0002105473 0.00014500442
0.0047729895 0.005325653 0.0026146707 0.0007504809 0.00046743508 0.015926996 0.016672118 0.0072964435
5.2708012e-05 5.2357485e-05 0.0012721862 0.0015800282 0.0009145852 7e-43 7e-43 7e-43
7e-43 7e-43 9.3252645e-05 3.0101155e-05 0.002104669 0.0018768806 0.00057764497 0.0003379499
0.00021229092 0.007297539 0.007778088 0.003497118 4.0987088e-05 1.2565488e-05 0.00011620339 0.00019507422
0.00013028028 1.218929e-12 2.8024744e-12 1.09259745e-11 1.7417703e-11 1.0986255e-11 9.574876e-06 1.4309649e-05
0.00021097579 0.0002429923 0.00013119311 7.3439415e-09 2.6663713e-07 1.2786672e-06 1.4833741e-06 1.1866828e-06
3.9709807e-06 1.1126976e-05 0.00017503914 0.00016149972 7.668436e-05 1.9205936e-06 1.7693912e-06 5.5514272e-05
5.526468e-05 2.1768035e-05 0.00014054462 0.000104267485 0.0031026618 0.0037110003 0.0019729848 9.81299e-06
1.163151e-05 0.00032073376 0.00038372015 0.0002286815 4.1869604e-05 1.6282142e-05 0.0007963769 0.0007363352
0.00022884322 3.6542474e-06 7.26074e-06 0.00016261707 0.00015463369 7.5036696e-05 1.4867876e-05 6.919306e-06
0.00036533663 0.00038870127 0.00019292817 0.00031967988 0.00019398647 0.007842279 0.009578275 0.005394669
0.000569016 0.00029171782 0.012953173 0.01524728 0.008083013 7.784364e-06 2.881445e-06 0.00014184945
0.00013075232 3.7962574e-05 0.0009661742 0.00042467323 0.01906161 0.017717684 0.0058961445 0.0005247474
0.00026564486 0.0104946075 0.010695739 0.004354652 5.676362e-06 4.0442947e-06 0.0001066543 0.00010806325
4.1731426e-05 0.0014693231 0.0006229323 0.02907565 0.027544182 0.009323113 0.00019387135 6.6210756e-05
0.0039144806 0.0034932273 0.0009830901 2.5628148e-17 7.100698e-16 6.4394685e-16 7.8215404e-16 2.889435e-16
0.0014644089 0.0005885367 0.029111559 0.027871208 0.00960751 0.0011083172 0.0005437887 0.024671087
0.02779651 0.013816187 8.532514e-06 4.281842e-06 0.000191839 0.0001988345 9.157931e-05 1.4022006e-05
3.8780134e-05 0.0007568077 0.0006496511 0.00026597062 0.0007971298 0.00046963192 0.013672684 0.013990619
0.006406311 2.1194655e-05 7.740886e-06 0.00040746114 0.00036284846 9.773076e-05 0.0021713397 0.00087840954
0.043261 0.04119528 0.014026934 0.00048542372 0.00025089958 0.009794613 0.009857897 0.003958989
2.7006124e-06 4.493287e-06 6.807608e-05 6.2609106e-05 2.5110718e-05 0.00025958638 0.000104575425 0.0052353963
0.0050794613 0.0018051603 5.2805135e-06 6.498534e-06 0.0001317852 0.00014319015 7.587437e-05 0.0032819991
00000000: 0000 0000 0000 0000 0000 0000 0000 0000
00000010: 0000 0000 f879 ed23 fa5b 4726 1b40 3526
00000020: 4a5b 5826 e096 9e25 f699 313b df45 da3a
00000030: 23b0 803d 7d8e 823d 08d1 d43c bd29 232e
00000040: c1c5 1b2e 31a2 572f d362 962f b404 812f
00000050: f55e bf38 2b66 2938 87ab f63a 494b ea3a
00000060: bf58 1c3a a685 4537 7a17 a136 fbfc 4e39
00000070: c2e9 3f39 5e34 5838 b0fe a338 ff22 1738
00000080: cef9 c33a 008b be3a 821f 073a bd75 db3a
00000090: 7c10 513a 38ea 273d 22c2 353d 9aea aa3c
000000a0: f401 0000 f401 0000 f401 0000 f401 0000
000000b0: f401 0000 4f4c 5c3a 4745 3c3a bb59 ae3c
000000c0: e3ff b63c 4412 2c3c ba2d ce37 2d62 b237
000000d0: 7585 1b3a 7259 3b3a e880 cf39 ef38 9139
000000e0: bba8 1e39 1c4e b83b fd9c ba3b 0c8b 163b
000000f0: 55f1 a937 eb63 ee37 e745 143a 2720 433a
00000100: 6348 f739 1daa 0338 9ad7 6337 e4f9 1e3a
00000110: 9a99 1b3a 8e5f 6039 5cc6 5c39 540c 1839
00000120: bd66 9c3b d182 ae3b e55a 2b3b ecbb 443a
00000130: 1312 f539 5579 823c f793 883c 0117 ef3b
00000140: cc12 5d38 6c9a 5b38 7cbf a63a f318 cf3a
00000150: c6c0 6f3a f401 0000 f401 0000 f401 0000
00000160: f401 0000 f401 0000 a290 c338 bd81 fc37
00000170: 7dee 093b aa01 f63a 196d 173a de2e b139
00000180: 699a 5e39 3220 ef3b 55df fe3b e72f 653b
00000190: 8de9 2b38 5cd0 5237 38b2 f338 d68c 4c39
000001a0: d99b 0839 8c8c ab2b e434 452c 3736 402d
000001b0: 2e35 992d b245 412d c7a3 2037 7913 7037
000001c0: 6239 5d39 c0cb 7e39 e290 0939 fe55 fc31
000001d0: 5426 8f34 ac9e ab35 5918 c735 1c46 9f35
000001e0: 773e 8536 ffad 3a37 b68a 3739 4058 2939
000001f0: 9ad1 a038 8ce3 0036 d27b ed35 ffd7 6838
00000200: 00cc 6738 809a b637 295f 1339 2eaa da38
00000210: 0756 4b3b 4134 733b 314d 013b 79a2 2437
00000220: f424 4337 2828 a839 0c2e c939 39ca 6f39
00000230: 259d 2f38 a295 8837 f3c3 503a 9e06 413a
00000240: a2f5 6f39 7e3b 7536 48a1 f336 3084 2a39
00000250: 2a25 2239 055d 9d38 0b71 7937 632c e836
00000260: a78a bf39 9aca cb39 c34c 4a39 b59a a739
00000270: d968 4b39 e77c 003c 32ee 1c3c c3c5 b03b
00000280: 042a 153a b4f1 9839 8c39 543c bacf 793c
00000290: 9d6e 043c 9799 0237 d95e 4136 6cbd 1439
000002a0: 8f1a 0939 013a 1f38 da46 7d3a ada6 de39
000002b0: 1827 9c3c ad24 913c 7234 c13b 348f 093a
000002c0: 4046 8b39 93f1 2b3c 2e3d 2f3c 78b1 8e3b
000002d0: 9477 be36 3ab4 8736 97ab df38 04a0 e238
000002e0: c708 2f38 4d96 c03a 474c 233a 0f30 ee3c
000002f0: 56a4 e13c f8bf 183c f249 4b39 a1da 8a38
00000300: 0b45 803b a1ee 643b 08db 803a c160 ec23
00000310: e7a9 4c26 e49a 3926 c870 6126 8990 a625
00000320: 69f1 bf3a 0848 1a3a 5d7b ee3c 2952 e43c
00000330: d168 1d3c f444 913a 0b8d 0e3a 051b ca3c
00000340: 82b5 e33c 4a5d 623c de26 0f37 beac 8f36
00000350: 6428 4939 3b7e 5039 450e c038 0f40 6b37
00000360: daa7 2238 8164 463a 594d 2a3a f971 8b39
00000370: 7af6 503a ee38 f639 6503 603c e938 653c
00000380: 08ec d13b 2dcb b137 dade 0137 82a0 d539
00000390: b23c be39 cdf4 cc38 094d 0e3b 1145 663a
000003a0: 7232 313d 62bc 283d 3ad1 653c 7880 fe39
000003b0: 2c8b 8339 9679 203c 0483 213c 68ba 813b
000003c0: 2b3c 3536 0bc5 9636 11c4 8e38 024d 8338
000003d0: dba4 d237 1819 8839 814f db38 b08d ab3b
000003e0: 9c71 a63b 219b ec3a 442f b136 fb0d da36
000003f0: d22f 0a39 5025 1639 be1e 9f38 cf16 573b

exp_avg f4 [64]
0.0 -3.076153e-09 0.015222819 -1.3827073e-09 -0.0022633802 -0.00057382055 -0.0025893894 0.018383313
6e-45 0.010734658 0.0027276776 0.0057015135 0.0024674963 -0.0016432889 0.006575797 0.011147033
0.0037464693 -6e-45 0.00030456917 0.0072458913 0.00014105832 -2.2356017e-09 -0.0015370867 -2.7939019e-05
-0.0011993026 0.0007282315 -0.005176632 0.0012928881 -0.0014385647 -0.0013543987 0.00070622936 0.009772594
0.012310377 -0.00036416372 -0.009093764 -0.008155584 -0.0006506741 -0.010403828 -0.0013540062 -3.0127802e-09
-0.010732084 0.013353266 0.00043655027 -0.0027461108 -0.007805565 -0.00070843357 -0.012691846 0.008165951
-0.00070561375 -0.0046091033 0.0013808039 0.00044726694 -0.005549531 0.0021298036 -0.003811728 -0.010385986
-0.0013020587 0.009605669 -0.003824482 0.001792138 -1.191653e-09 -2.1579614e-27 0.0058007287 -0.010680854
00000000: 0000 0000 4264 53b1 2169 793c b009 beb0
00000010: 3855 14bb 726c 16ba bfb2 29bb 9a98 963c
00000020: 0400 0000 6be0 2f3c d6c2 323b c3d3 ba3b
00000030: b8b5 213b a063 d7ba c979 d73b 0ca2 363c
00000040: 5387 753b 0400 0080 95ae 9f39 f16e ed3b
00000050: 0ee9 1339 1fa1 19b1 1278 c9ba 965e eab7
00000060: eb31 9dba cae6 3e3a bda0 a9bb 2076 a93a
00000070: 398e bcba 1486 b1ba 4022 393a 3b1d 203c
00000080: 77b1 493c 3aed beb9 03fe 14bc 009f 05bc
00000090: 0092 2aba d174 2abc e978 b1ba 6409 4fb1
000000a0: 9fd5 2fbc a8c7 5a3c c9e0 e439 18f8 33bb
000000b0: d3c5 ffbb 2cb6 39ba 76f1 4fbc 7bca 053c
000000c0: f0f8 38ba f607 97bb 17fc b43a 277f ea39
000000d0: d7d8 b5bb 2d94 0b3b 2fce 79bb fc29 2abc
000000e0: d7a9 aaba 1961 1d3c 29a4 7abb 2ce6 ea3a
000000f0: 90c7 a3b0 a8f8 2a93 0a14 be3b c0fe 2ebc

exp_avg_sq f4 [64]
0.0 5.820939e-17 0.0052160895 2.8363778e-11 0.00013746759 1.3217012e-05 0.0001137388 0.0038230342
7e-43 0.001927322 6.4828426e-05 0.00046457496 7.133835e-05 4.670966e-05 0.00046301723 0.0013969792
0.00014525585 7e-43 0.00014497283 0.00065597566 1.7740535e-05 1.5379617e-12 2.144594e-05 1.5976507e-07
1.3366105e-05 4.3543205e-06 0.000343195 3.55792e-05 5.5899938e-05 1.2971727e-05 3.4775003e-05 0.00087589264
0.0013611296 9.6768445e-06 0.0013758221 0.0008758846 8.473716e-06 0.0021413546 0.00025979496 6.0637765e-17
0.002174084 0.00241966 1.7098393e-05 5.0399387e-05 0.001215565 2.627271e-05 0.0032039525 0.00080539327
4.779748e-06 0.00039873816 1.3023907e-05 0.0025902172 0.00062654755 5.590416e-05 0.00011263864 0.0037639635
1.08968525e-05 0.00083350827 0.0001508047 4.123304e-05 8.420428e-18 7e-43 0.00027188778 0.0037981272
00000000: 0000 0000 c238 8624 bbeb aa3b 8d7d f92d
00000010: 2d25 1039 a2be 5d37 0e87 ee38 df8b 7a3b
00000020: f401 0000 329e fc3a 7ff4 8738 3292 f339
00000030: 7c9b 9538 1eea 4338 1fc1 f239 d81a b73a
00000040: d24f 1839 f401 0000 d903 1839 c8f5 2b3a
00000050: 82d1 9437 e972 d82b cee6 b337 e38b 2b34
00000060: fc3e 6037 541b 9236 daee b339 e03a 1538
00000070: 1a76 6a38 25a1 5937 60db 1138 299c 653a
00000080: ee67 b23a bb59 2237 ee54 b43a 9f9b 653a
00000090: 552a 0e37 f855 0c3b 1735 8839 38d2 8b24
000000a0: 147b 0e3b 2993 1e3b 856e 8f37 ee63 5338
000000b0: 9853 9f3a 3764 dc37 67f9 513b 0721 533a
000000c0: b961 a036 bb0d d139 4181 5a37 a2c0 293b
000000d0: e53e 243a a27a 6a38 6938 ec38 d4ac 763b
000000e0: a0d1 3637 cb7f 5a3a 5421 1e39 a4f1 2c38
000000f0: 5954 1b23 f401 0000 298c 8e39 00ea 783b

exp_avg f4 [32, 64]
0.0 3.8040948e-10 -0.001057393 1.37880115e-11 -0.0022546395 -0.0040206993 -0.0031801804 -0.00088455965
6e-45 -0.0010896685 -0.0021180427 -0.00066512526 -0.0012128701 -0.004254116 -0.0012129537 -0.0007947099
-0.0006165714 -6e-45 -0.0012803728 -0.0015117718 -3.2332235e-07 1.9314864e-11 -0.0032934353 -7.162952e-08
-0.0041875704 -0.0048313625 -5.6106503e-05 -0.0028413895 -0.0019708194 -0.0025693572 -0.00080305565 -0.0014017496
-0.00094904215 -0.0034307337 -0.001067664 -0.0013822359 -0.0037435151 -0.001113707 -0.0018247898 4.0289666e-10
-0.001147802 -0.001041776 -0.0029871897 -0.001664743 -0.00090000033 -0.003858533 -0.0010184156 -0.0012156239
-0.005823115 -0.0013378724 -0.0030782341 -7.976887e-06 -0.0011142589 -0.0022695316 -0.003090503 -0.00086237845
-0.0029217752 -0.0012532494 -0.0013424975 -0.0019968047 3.1665395e-10 -4.5013924e-29 -0.0012250454 -0.0008880906
0.0 6e-45 6e-45 -6e-45 6e-45 6e-45 6e-45 6e-45
4e-45 6e-45 6e-45 6e-45 6e-45 6e-45 6e-45 6e-45
6e-45 6e-45 6e-45 6e-45 -6e-45 -6e-45 6e-45 3e-45
6e-45 6e-45 6e-45 6e-45 6e-45 6e-45 6e-45 6e-45
6e-45 6e-45 6e-45 6e-45 6e-45 6e-45 6e-45 -6e-45
6e-45 -6e-45 6e-45 -6e-45 6e-45 6e-45 6e-45 6e-45
6e-45 6e-45 6e-45 -6e-45 6e-45 6e-45 6e-45 6e-45
6e-45 6e-45 6e-45 6e-45 -6e-45 -6e-45 6e-45 6e-45
0.0 3.8959058e-11 0.0022079106 2.6892457e-11 0.0031348912 0.0046812287 0.003896504 0.0018657988
6e-45 0.0010870133 0.0023864575 0.0005260324 0.0016740751 0.005027694 0.0011802044 0.0010336746
0.0006484551 6e-45 0.0011023363 0.0015061978 4.779594e-07 2.0476697e-11 0.003476299 1.0629795e-07
0.0041828537 0.006089696 8.294417e-05 0.0028054041 0.0024902679 0.0024562916 0.00089065754 0.0010883729
0.00052596664 0.00427455 0.0010976994 0.0015161476 0.004565341 0.0014980311 0.002513779 4.1350343e-11
0.0014871983 0.00017323591 0.003617749 0.0012092802 0.00082834886 0.0045759524 0.001302755 0.0012983063
0.006535686 0.0019267998 0.0039963964 -1.5259396e-06 0.0012467589 0.0023054888 0.0030698164 0.0012978935
0.0028699695 0.0009299784 0.0014849373 0.0026045928 3.862277e-11 1.1457443e-28 0.0017689918 0.0013871682
0.0 -6e-45 0.00021157811 -6e-45 0.000531641 0.00088620157 0.00072565355 -2.626264e-06
-6e-45 0.00052820466 0.00044212045 0.00018132788 0.00020692476 0.0009751045 0.00020782943 0.00014482893
0.00013604481 -6e-45 0.0004168928 0.0002639107 1.4342772e-06 -6e-45 0.0007308799 -6e-45
0.0009736339 0.0012296072 1.8428191e-28 0.00039600805 0.00039359412 0.00063573744 5.686562e-05 0.00012359873
6.115021e-05 0.00078534614 0.00014293329 0.00036450743 0.0008312504 0.00013793363 0.0003801854 -6e-45
0.00025012626 8.957225e-05 0.0004811017 0.00045184692 0.00042040762 0.00075481506 0.00019723515 0.00033654188
0.001263122 0.00037276317 0.0007626738 -6e-45 0.0002759185 0.00046542258 0.0006961131 5.9824713e-05
0.0006578951 0.00012629805 0.00032223578 0.00064963446 -6e-45 8.505181e-28 0.00029653587 0.00015561217
00000000: 0000 0000 e021 d12f 3998 8aba af8f 722d
00000010: 93c2 13bb 12c0 83bb 936a 50bb cbe1 67ba
00000020: 0400 0000 35d3 8eba dcce 0abb cd5b 2eba
00000030: 2bf9 9eba 1d66 8bbb f9fb 9eba 1454 50ba
00000040: 68a1 21ba 0400 0080 2fd2 a7ba a526 c6ba
00000050: 1695 adb4 35e5 a92d add6 57bb bfd2 99b3
00000060: e337 89bb 6850 9ebb e653 6bb8 9b36 3abb
00000070: dd28 01bb a962 28bb 2784 52ba e9ba b7ba
00000080: 24c9 78ba 29d6 60bb dcf0 8bba 242c b5ba
00000090: c355 75bb cef9 91ba c92d efba aa7e dd2f
000000a0: d871 96ba 348c 88ba bac4 43bb 8133 daba
000000b0: 00ee 6bba 71df 7cbb 5b7c 85ba 9255 9fba
000000c0: d4cf bebb 8c5b afba 33bc 49bb 78d4 05b7
000000d0: 530c 92ba 6cbc 14bb 098a 4abb 3d11 62ba
000000e0: 417b 3fbb 1244 a4ba bef6 afba d3dc 02bb
000000f0: 1515 ae2f 6a3f 6490 b491 a0ba c0ce 68ba
00000100: 0000 0000 0400 0000 0400 0000 0400 0080
00000110: 0400 0000 0400 0000 0400 0000 0400 0000
00000120: 0300 0000 0400 0000 0400 0000 0400 0000
00000130: 0400 0000 0400 0000 0400 0000 0400 0000
00000140: 0400 0000 0400 0000 0400 0000 0400 0000
00000150: 0400 0080 0400 0080 0400 0000 0200 0000
00000160: 0400 0000 0400 0000 0400 0000 0400 0000
00000170: 0400 0000 0400 0000 0400 0000 0400 0000
00000180: 0400 0000 0400 0000 0400 0000 0400 0000
00000190: 0400 0000 0400 0000 0400 0000 0400 0080
000001a0: 0400 0000 0400 0080 0400 0000 0400 0080
000001b0: 0400 0000 0400 0000 0400 0000 0400 0000
000001c0: 0400 0000 0400 0000 0400 0000 0400 0080
000001d0: 0400 0000 0400 0000 0400 0000 0400 0000
000001e0: 0400 0000 0400 0000 0400 0000 0400 0000
000001f0: 0400 0080 0400 0080 0400 0000 0400 0000
00000200: 0000 0000 0058 2b2e 98b2 103b 6e8c ec2d
00000210: bf72 4d3b fe64 993b 7d5c 7f3b d28d f43a
00000220: 0400 0000 1d7a 8e3a 1d66 1c3b 70e5 093a
00000230: a46c db3a 5bbf a43b 17b1 9a3a 5d7c 873a
00000240: 16fd 293a 0400 0000 457c 903a 9d6b c53a
00000250: 1f4d 0035 6c1d b42d 9fd2 633b eb45 e433
00000260: 5210 893b 138c c73b 50f2 ad38 dfda 373b
00000270: c333 233b bcf9 203b 047b 693a bca7 8e3a
00000280: 06e1 093a 8611 8c3b aee0 8f3a 79b9 c63a
00000290: db98 953b 9559 c43a 37be 243b 59dc 352e
000002a0: 18ee c23a a9a6 3539 c217 6d3b b680 9e3a
000002b0: 8d25 593a dff1 953b 34c1 aa3a ee2b aa3a
000002c0: 4f29 d63b ac8c fc3a 34f4 823b e3ce ccb5
000002d0: 496a a33a af17 173b f92e 493b 141e aa3a
000002e0: 1916 3c3b cbc9 733a 3aa2 c23a d1b1 2a3b
000002f0: 60dd 292e 873d 1111 84dd e73a a4d1 b53a
00000300: 0000 0000 0400 0080 11db 5d39 0400 0080
00000310: d35d 0b3a fb4f 683a c939 3e3a df3e 30b6
00000320: 0400 0080 3777 0a3a 67cc e739 d522 3e39
00000330: f1f9 5839 289e 7f3a caec 5939 38dd 1739
00000340: 40a7 0e39 0400 0080 6892 da39 7f5d 8a39
00000350: 6481 c035 0400 0080 8598 3f3a 0400 0080
00000360: 773b 7f3a c52a a13a e69a 6911 4d9f cf39
00000370: 4f5b ce39 9ea7 263a ff82 6e38 489a 0139
00000380: c53d 8038 b0df 4d3a 5de0 1539 5c1b bf39
00000390: 45e8 593a 47a2 1039 9f53 c739 0400 0080
000003a0: 6123 8339 bcd8 bb38 613c fc39 dee5 ec39
000003b0: 286a dc39 c8de 453a e8d0 4e39 e371 b039
000003c0: 578f a53a 6d6f c339 2cee 473a 0400 0080
000003d0: 27a9 9039 f603 f439 5c7b 363a 4cec 7a38
000003e0: 9876 2c3a e06e 0439 c1f1 a839 3b4c 2a3a
000003f0: 0400 0080 1dc5 8612 5f78 9b39 d32b 2339

exp_avg_sq f4 [32, 64]
0.0 8.5158823e-19 2.5636818e-05 2.0185564e-18 7.85547e-05 0.00030242244 0.0001698303 2.891154e-05
7e-43 3.5740963e-05 0.00013824753 2.077556e-05 5.6223325e-05 0.00032118743 6.144989e-05 2.1683614e-05
2.5671992e-05 7e-43 2.668375e-05 7.5141754e-05 5.7342592e-11 1.5971341e-18 0.00021385656 5.805968e-13
0.00036648265 0.00047149498 2.3180577e-07 0.00025713706 7.304673e-05 0.000121392935 3.005946e-05 0.000103263665
6.140472e-05 0.00021231212 2.8430355e-05 2.4506762e-05 0.00024106508 2.0406984e-05 7.293606e-05 9.351262e-19
1.6152628e-05 7.479439e-05 0.00021454763 6.352185e-05 8.23121e-06 0.00031640008 1.3351377e-05 5.4276738e-05
0.0006532916 1.931467e-05 0.0001828107 6.79342e-08 1.6137401e-05 0.00017987035 0.00017826179 1.0485121e-05
0.00016857694 8.475594e-05 2.920584e-05 7.184367e-05 1.2773966e-18 7e-43 4.5185738e-05 8.312977e-06
0.0 7e-43 4.454573e-35 7e-43 8.4403577e-35 9.2252435e-35 1.0293642e-34 4.0839701e-35
7e-43 1.161817e-36 2.0240285e-35 7e-43 2.5693592e-35 1.2485567e-34 1.3492921e-36 1.4070729e-36
3.5682926e-36 7e-43 7e-43 1.7897967e-36 7e-43 7e-43 4.0916754e-35 7e-43
3.602534e-35 1.982759e-34 5.8117148e-37 2.8050197e-35 4.7452784e-35 8.205748e-36 7.9933e-36 4.494998e-37
7e-43 1.0648902e-34 1.4425996e-35 9.371476e-36 1.015679e-34 3.642617e-35 6.8069216e-35 7e-43
1.9601064e-35 7e-43 7.560154e-35 7e-43 4.191068e-37 1.2234009e-34 1.7754981e-35 9.928219e-37
1.7507336e-34 3.3783226e-35 7.3368497e-35 7e-43 1.2322073e-36 1.7293133e-35 3.130063e-35 3.1782905e-35
1.6888552e-35 6.211478e-39 1.1105105e-35 2.505623e-35 7e-43 7e-43 1.9068045e-35 2.6900918e-35
0.0 1.2803736e-20 2.226466e-05 4.085203e-18 7.231631e-05 0.00019227462 0.0001305622 1.6695363e-05
7e-43 3.1040123e-05 4.6345736e-05 4.6023574e-06 1.7684923e-05 0.00022177238 1.2801251e-05 6.376936e-06
5.190468e-06 7e-43 2.1698695e-05 2.1130838e-05 1.2523639e-10 3.255339e-18 0.0001250025 1.2684763e-12
0.00019451595 0.00029635898 5.0636777e-07 7.8475394e-05 4.8435923e-05 7.6949735e-05 6.5173886e-06 1.7149543e-05
7.894942e-06 0.00014761384 1.3331906e-05 2.8411388e-05 0.0001723942 1.8231029e-05 4.490468e-05 1.424705e-20
2.0369898e-05 9.614126e-06 9.99869e-05 3.236134e-05 1.5453572e-05 0.00017253004 1.5759917e-05 1.6142933e-05
0.0003953337 3.098405e-05 0.000117091455 2.6585587e-09 1.8305203e-05 5.2132764e-05 0.00011431584 1.22748925e-05
9.609516e-05 1.3128339e-05 2.306005e-05 5.8576672e-05 5.098189e-21 7e-43 1.9485075e-05 1.382399e-05
0.0 7e-43 2.315181e-05 7e-43 0.00016751785 0.00029310558 0.0002708228 4.7477995e-09
7e-43 0.00028349282 9.414575e-05 1.4647458e-05 3.9275288e-05 0.0004117302 1.256886e-05 4.311169e-06
1.9165655e-05 7e-43 6.288528e-05 1.3495596e-05 2.3198443e-10 7e-43 0.00019617361 7e-43
0.00033961338 0.00085085386 5.2661195e-32 3.77874e-05 7.84855e-05 0.00013499048 3.0175395e-06 1.5462249e-06
3.7668934e-07 0.00029185222 1.5051766e-05 5.7080004e-05 0.0002713536 1.458596e-05 0.00012008179 7e-43
2.9605828e-05 8.256503e-07 7.3330164e-05 7.101318e-05 0.0001142798 0.00024258654 2.0436375e-05 5.573082e-05
0.0005982941 7.977869e-05 0.00027861053 7e-43 1.7370974e-05 0.00011705773 0.00017686182 2.3204052e-06
0.00013973832 1.6030934e-06 4.797662e-05 0.00024624314 7e-43 7e-43 5.9528687e-05 1.5015753e-05
00000000: 0000 0000 3058 7b21 a60e d737 74f1 1422
00000010: bcbd a438 748e 9e39 7914 3239 0f87 f237
00000020: f401 0000 91e8 1538 8af6 1039 2d47 ae37
00000030: 56d1 6b38 0c65 a839 a9de 8038 35e5 b537
00000040: 2f5a d737 f401 0000 ebd6 df37 6c95 9d38
00000050: 0532 7c2e 05b2 eb21 af3e 6039 696c 232b
00000060: 7824 c039 fc32 f739 49e6 7834 5ad0 8639
00000070: aa30 9938 5694 fe38 3328 fc37 428f d838
00000080: 68c6 8038 1aa0 5e39 b97d ee37 df93 cd37
00000090: 6ac6 7c39 aa2f ab37 40f5 9838 1200 8a21
000000a0: 817f 8737 efda 9c38 31f8 6039 0937 8538
000000b0: c718 0a37 80e2 a539 baff 5f37 34a7 6338
000000c0: a841 2b3a f005 a237 e0b0 3f39 39e3 9133
000000d0: ce5e 8737 949b 3c39 c9eb 3a39 40e9 2f37
000000e0: 07c4 3039 00bf b138 10ff f437 c7aa 9638
000000f0: ae82 bc21 f401 0000 d185 3d38 f777 0b37
00000100: 0000 0000 f401 0000 81d8 6c06 f401 0000
00000110: 1962 e006 c13f f506 73d3 0807 1f24 5906
00000120: f401 0000 44ac c503 4c3b d705 f401 0000
00000130: 4e9c 0806 2ff6 2507 f691 e503 ab66 ef03
00000140: 44c7 9704 f401 0000 f401 0000 5242 1804
00000150: f401 0000 f401 0000 008d 5906 f401 0000
00000160: 278b 3f06 e5c6 8307 2dc3 4503 f323 1506
00000170: 624d 7c06 5784 2e05 aaff 2905 f5f4 1803
00000180: f401 0000 568c 0d07 4c67 9905 2b4f 4705
00000190: c401 0707 bcac 4106 82f5 b406 f401 0000
000001a0: 2c6f d005 f401 0000 befb c806 f401 0000
000001b0: 5a9d 0e03 2d9e 2207 a8cd bc05 7eeb a803
000001c0: 61b6 6807 589f 3306 030c c306 f401 0000
000001d0: 33a6 d103 63e4 b705 366c 2606 a6fc 2806
000001e0: 0397 b305 13a3 4300 f12d 6c05 c638 0506
000001f0: f401 0000 f401 0000 28c4 ca05 a207 0f06
00000200: 0000 0000 11db 711e fec4 ba37 a7b7 9622
00000210: 86a8 9738 539d 4939 86e7 0839 050d 8c37
00000220: f401 0000 1431 0238 5b63 4238 f36d 9a36
00000230: 155a 9437 928b 6839 f4c4 5637 77f9 d536
00000240: c829 ae36 f401 0000 9805 b637 2142 b137
00000250: e9b2 092f 9d33 7022 1a13 0339 ad85 b22b
00000260: faf6 4b39 a160 9b39 54ed 0735 2893 a438
00000270: ad27 4b38 1360 a138 f1af da36 5ddc 8f37
00000280: 8574 0437 cac8 1a39 1aac 5f37 fe54 ee37
00000290: b7c4 3439 d6ee 9837 0858 3c38 418f 861e
000002a0: 06e0 aa37 5b4c 2137 0fb0 d138 b9bb 0738
000002b0: 4ba2 8137 2ee9 3439 2a34 8437 af6a 8737
000002c0: cb44 cf39 dff4 0138 ff8e f538 dcb1 3631
000002d0: 208e 9937 21a9 5a38 d9bc ef38 43f0 4d37
000002e0: b286 c938 c941 5c37 1571 c137 39b0 7538
000002f0: a99a c01d f401 0000 e173 a337 96ed 6737
00000300: 0000 0000 f401 0000 2236 c237 f401 0000
00000310: bba7 2f39 f7ab 9939 39fd 8d39 1622 a331
00000320: f401 0000 c3a1 9439 1d70 c538 5abe 7537
00000330: 85bb 2438 7edd d739 d8de 5237 a9a8 9036
00000340: eec5 a037 f401 0000 47e1 8338 256b 6237
00000350: d011 7f2f f401 0000 f4b3 4d39 f401 0000
00000360: 230e b239 d60b 5f3a 5eb7 880b e97d 1e38
00000370: 9598 a438 3b8c 0d39 ef80 4a36 e287 cf35
00000380: ca3b ca34 be03 9939 d886 7c37 3069 6f38
00000390: 7744 8e39 39b6 7437 6cd4 fb38 f401 0000
000003a0: 085a f837 42a2 5d35 d5c8 9938 e9ec 9438
000003b0: 80a9 ef38 d45e 7e39 c86e ab37 83c0 6938
000003c0: d6d6 1c3a dc4e a738 7912 9239 f401 0000
000003d0: e2b7 9137 e47c f538 fc73 3939 42b8 1b36
000003e0: b886 1239 df29 d735 813a 4938 321a 8139
000003f0: f401 0000 f401 0000 71ae 7938 2bec 7b37

exp_avg f4 [32]
-0.0013167296 6e-45 0.0014716573 0.00030470063 -2.3059104e-21 -0.001319026 0.0 0.0011295
0.001628797 -0.0012701295 0.0013570266 -0.0009112935 -6e-45 -0.0013513503 0.0010465618 6e-45
0.0 -0.00069495296 0.0 0.0010142525 -0.0009601716 6e-45 -1.7482628e-21 8.593631e-19
-2.9603883e-14 0.00088388205 -9.92606e-06 -0.0013876145 0.0010161088 3.1250433e-21 -0.0013905695 -0.0012578232
00000000: 1d96 acba 0400 0000 a0e4 c03a 3ac0 9f39
00000010: cb3a 2e9d 2be3 acba 0000 0000 bb0b 943a
00000020: 5c7d d53a 797a a6ba 42de b13a dfe3 6eba
00000030: 0400 0080 cb1f b1ba c92c 893a 0400 0000
00000040: 0000 0000 812d 36ba 0000 0000 abf0 843a
00000050: 06b4 7bba 0400 0000 5218 049d a4a3 7d21
00000060: f452 05a9 52b4 673a 1a88 26b7 9ee0 b5ba
00000070: f42e 853a 211f 6c1d c543 b6ba 8bdd a4ba

exp_avg_sq f4 [32]
3.1051273e-05 8.7694964e-36 2.0366995e-05 4.0291445e-05 3.60509e-37 3.5359895e-05 0.0 1.1790084e-05
2.4831963e-05 5.942436e-05 8.588102e-06 1.2072529e-05 7e-43 5.5173758e-05 1.17694735e-05 7e-43
0.0 6.155587e-05 0.0 9.724337e-06 6.596974e-05 2.5522286e-21 2.0722646e-37 2.018123e-12
2.6159817e-22 9.217912e-06 2.1492909e-08 9.65368e-05 9.941479e-06 3.2980602e-21 3.735283e-05 2.040529e-05
00000000: 0d3d 0238 ae81 3a05 cad9 aa37 9cfe 2838
00000010: 8759 f502 664f 1438 0000 0000 06ce 4537
00000020: 3c4e d037 6c3e 7938 9e15 1037 1e8b 4a37
00000030: f401 0000 5f6a 6738 8175 4537 f401 0000
00000040: 0000 0000 8e17 8138 0000 0000 b625 2337
00000050: 3c59 8a38 48d7 401d f107 8d02 4603 0e2c
00000060: 5b20 9e1b a1a6 1a37 689f b832 cd73 ca38
00000070: 54ca 2637 c331 791d 4cab 1c38 072c ab37

exp_avg f4 [3, 32]
0.00077246415 -6e-45 -0.0045082713 2.9190428e-10 6e-45 0.00041529542 0.0 -0.0069005257
-0.00405612 0.0002464133 -0.0033477861 0.0005143009 -6e-45 0.0003473099 -0.0063511143 6e-45
0.0 -0.0002382168 0.0 -0.007083294 0.00027000092 6e-45 0.0 -6e-45
6e-45 -0.00751877 4e-45 0.00026249152 -0.007967975 0.0 0.00038975704 0.0006320392
-0.0053649982 6e-45 -0.0027601586 -7.213555e-07 6.951899e-21 -0.00666524 0.0 -0.007444691
-0.0025031033 -0.0060873628 -4.36723e-06 -0.005393533 -6e-45 -0.00697651 -0.008238124 -6e-45
0.0 -0.0053352807 0.0 -0.007950192 -0.0056011854 6e-45 1.8236075e-21 4.146135e-21
1.3470992e-13 -0.010045277 -3.3589733e-06 -0.0060061575 -0.00931134 9.601494e-21 -0.006595476 -0.0077361204
0.004592533 -6e-45 0.007268419 7.2195076e-07 6e-45 0.006249944 0.0 0.014345196
0.006559214 0.0058409506 0.0033521524 0.0048792316 6e-45 0.0066292 0.014589219 6e-45
0.0 0.005573497 0.0 0.015033466 0.005331186 -6e-45 0.0 -4.1460118e-21
-6e-45 0.017564029 3.3589283e-06 0.0057436666 0.017279295 -5.5876273e-31 0.0062057194 0.00710408
00000000: 317f 4a3a 0400 0080 1fba 93bb e079 a02f
00000010: 0400 0000 02bc d939 0000 0000 ce1d e2bb
00000020: 33e9 84bb 0931 8139 8866 5bbb 26d2 063a
00000030: 0400 0080 2517 b639 021d d0bb 0400 0000
00000040: 0000 0000 d6c9 79b9 0000 0000 fa1a e8bb
00000050: e98e 8d39 0400 0000 0000 0000 0400 0080
00000060: 0400 0000 0460 f6bb 0300 0000 049f 8939
00000070: 1c8c 02bc 0000 0000 4e58 cc39 6faf 253a
00000080: decc afbb 0400 0000 c7e3 34bb 2ca3 41b5
00000090: 5251 031e 1668 dabb 0000 0000 98f2 f3bb
000000a0: 1b0b 24bb 8078 c7bb 388a 92b6 3cbc b0bb
000000b0: 0400 0080 359b e4bb 32f9 06bc 0400 0080
000000c0: 0000 0000 94d3 aebb 0000 0000 8641 02bc
000000d0: 268a b7bb 0400 0000 b3c9 091d f5a2 9c1d
000000e0: 7eab 172a f294 24bc b96a 61b6 4dcf c4bb
000000f0: 978e 18bc fa5d 351e dd1e d8bb 487f fdbb
00000100: f67c 963b 0400 0080 eb2b ee3b 14cc 4135
00000110: 0400 0000 55cc cc3b 0000 0000 1d08 6b3c
00000120: adee d63b 7265 bf3b c9af 5b3b f6e1 9f3b
00000130: 0400 0000 c339 d93b 9f07 6f3c 0400 0000
00000140: 0000 0000 e2a1 b63b 0000 0000 ed4e 763c
00000150: 3bb1 ae3b 0400 0080 0000 0000 c4a1 9c9d
00000160: 0400 0080 70e2 8f3c f369 6136 5e35 bc3b
00000170: 4f8d 8d3c 3154 358d 5959 cb3b 58c9 e83b
